…
  computed: "CrossEntropyLoss(\n  (loss): CrossEntropyLoss()\n)"
  is_explicitly_specified: false
  is_hyperparam: null
  is_meta: null
  name: loss_func
  options: []
  order: 30
  type: <class 'labml_nn.experiments.nlp_autoregression.CrossEntropyLoss'>
  value: null
mode:
  computed: labml_helpers.train_valid.ModeState
  is_explicitly_specified: false
  is_hyperparam: null
  is_meta: null
  name: mode
  options:
  - from_type
  order: 7
  type: <class 'labml_helpers.train_valid.ModeState'>
  value: null
model:
  computed: "AutoregressiveTransformer(\n  (src_embed): EmbeddingsWithPositionalEncoding(\n\
    \    (linear): Embedding(65, 256)\n  )\n  (encoder): Encoder(\n    (layers): TypedModuleList(\n\
    \      (0-5): 6 x TransformerLayer(\n        (self_attn): MultiHeadAttention(\n\
    \          (query): PrepareForMultiHeadAttention(\n            (linear): Linear(in_features=256,\
    \ out_features=256, bias=True)\n          )\n          (key): PrepareForMultiHeadAttention(\n\
    \            (linear): Linear(in_features=256, out_features=256, bias=True)\n\
    \          )\n          (value): PrepareForMultiHeadAttention(\n            (linear):\
    \ Linear(in_features=256, out_features=256, bias=True)\n          )\n        \
    \  (softmax): Softmax(dim=1)\n          (output): Linear(in_features=256, out_features=256,\
    \ bias=True)\n          (dropout): Dropout(p=0.1, inplace=False)\n        )\n\
    \        (feed_forward): FeedForward(\n          (layer1): Linear(in_features=256,\
    \ out_features=1024, bias=True)\n          (layer2): Linear(in_features=1024,\
    \ out_features=256, bias=True)\n          (dropout): Dropout(p=0.1, inplace=False)\n\
    \          (activation): ReLU()\n        )\n        (dropout): Dropout(p=0.1,\
    \ inplace=False)\n        (norm_self_attn): LayerNorm((256,), eps=1e-05, elementwise_affine=True)\n\
    \        (norm_ff): LayerNorm((256,), eps=1e-05, elementwise_affine=True)\n  \
    \    )\n    )\n    (norm): LayerNorm((256,), eps=1e-05, elementwise_affine=True)\n\
    \  )\n  (generator): Generator(\n    (projection): Linear(in_features=256, out_features=65,\
    \ bias=True)\n  )\n)"
  is_explicitly_specified: false
  is_hyperparam: null
  is_meta: null
  name: model
  options:
  - _model
  order: 0
  type: <class 'labml_helpers.module.Module'>
  value: null
n_tokens:
  computed: 65
  is_explicitly_specified: false
  is_hyperparam: null
  is_meta: null
  name: n_tokens
  options:
  - _n_tokens
  order: 2
  type: <class 'int'>
…
  is_explicitly_specified: false
  is_hyperparam: null
  is_meta: null
  name: decoder_mem_attn
  options:
  - mha
  - relative
  order: -1
  type: <class 'labml_nn.transformers.mha.MultiHeadAttention'>
  value: null
transformer.dropout:
  computed: 0.1
  is_explicitly_specified: false
  is_hyperparam: null
  is_meta: null
  name: dropout
  options: []
  order: 5
  type: <class 'float'>
  value: null
transformer.encoder:
  computed: "Encoder(\n  (layers): TypedModuleList(\n    (0-5): 6 x TransformerLayer(\n\
    \      (self_attn): MultiHeadAttention(\n        (query): PrepareForMultiHeadAttention(\n\
    \          (linear): Linear(in_features=256, out_features=256, bias=True)\n  \
    \      )\n        (key): PrepareForMultiHeadAttention(\n          (linear): Linear(in_features=256,\
    \ out_features=256, bias=True)\n        )\n        (value): PrepareForMultiHeadAttention(\n\
    \          (linear): Linear(in_features=256, out_features=256, bias=True)\n  \
    \      )\n        (softmax): Softmax(dim=1)\n        (output): Linear(in_features=256,\
    \ out_features=256, bias=True)\n        (dropout): Dropout(p=0.1, inplace=False)\n\
    \      )\n      (feed_forward): FeedForward(\n        (layer1): Linear(in_features=256,\
    \ out_features=1024, bias=True)\n        (layer2): Linear(in_features=1024, out_features=256,\
    \ bias=True)\n        (dropout): Dropout(p=0.1, inplace=False)\n        (activation):\
    \ ReLU()\n      )\n      (dropout): Dropout(p=0.1, inplace=False)\n      (norm_self_attn):\
    \ LayerNorm((256,), eps=1e-05, elementwise_affine=True)\n      (norm_ff): LayerNorm((256,),\
    \ eps=1e-05, elementwise_affine=True)\n    )\n  )\n  (norm): LayerNorm((256,),\
    \ eps=1e-05, elementwise_affine=True)\n)"
  is_explicitly_specified: false
  is_hyperparam: null
  is_meta: null
  name: encoder
  options:
  - default
  order: 0
  type: <class 'labml_nn.transformers.models.Encoder'>
  value: null
transformer.encoder_attn:
  computed: "MultiHeadAttention(\n  (query): PrepareForMultiHeadAttention(\n    (linear):\
    \ Linear(in_features=256, out_features=256, bias=True)\n  )\n  (key): PrepareForMultiHeadAttention(\n\
    \    (linear): Linear(in_features=256, out_features=256, bias=True)\n  )\n  (value):\
    \ PrepareForMultiHeadAttention(\n    (linear): Linear(in_features=256, out_features=256,\
    \ bias=True)\n  )\n  (softmax): Softmax(dim=1)\n  (output): Linear(in_features=256,\
    \ out_features=256, bias=True)\n  (dropout): Dropout(p=0.1, inplace=False)\n)"
  is_explicitly_specified: false
  is_hyperparam: null
  is_meta: null
  name: encoder_attn
  options:
  - mha
  - relative
  order: 3
  type: <class 'labml_nn.transformers.mha.MultiHeadAttention'>
  value: null
transformer.encoder_decoder:
  computed: null
  is_explicitly_specified: false
  is_hyperparam: null
  is_meta: null
  name: encoder_decoder
  options:
  - default
  order: -1
  type: <class 'labml_nn.transformers.models.EncoderDecoder'>
  value: null
transformer.encoder_layer:
  computed: "TransformerLayer(\n  (self_attn): MultiHeadAttention(\n    (query): PrepareForMultiHeadAttention(\n\
    \      (linear): Linear(in_features=256, out_features=256, bias=True)\n    )\n\
    \    (key): PrepareForMultiHeadAttention(\n      (linear): Linear(in_features=256,\
    \ out_features=256, bias=True)\n    )\n    (value): PrepareForMultiHeadAttention(\n\
    \      (linear): Linear(in_features=256, out_features=256, bias=True)\n    )\n\
    \    (softmax): Softmax(dim=1)\n    (output): Linear(in_features=256, out_features=256,\
    \ bias=True)\n    (dropout): Dropout(p=0.1, inplace=False)\n  )\n  (feed_forward):\
    \ FeedForward(\n    (layer1): Linear(in_features=256, out_features=1024, bias=True)\n\
    \    (layer2): Linear(in_features=1024, out_features=256, bias=True)\n    (dropout):\
    \ Dropout(p=0.1, inplace=False)\n    (activation): ReLU()\n  )\n  (dropout): Dropout(p=0.1,\
    \ inplace=False)\n  (norm_self_attn): LayerNorm((256,), eps=1e-05, elementwise_affine=True)\n\
    \  (norm_ff): LayerNorm((256,), eps=1e-05, elementwise_affine=True)\n)"
  is_explicitly_specified: false
  is_hyperparam: null
  is_meta: null
  name: encoder_layer
  options:
  - default
  order: 1
  type: <class 'labml_nn.transformers.models.TransformerLayer'>
  value: null
transformer.ffn:
  computed: labml_nn.transformers.configs.FeedForwardConfigs
  is_explicitly_specified: false
  is_hyperparam: null
  is_meta: null
…
